assets/autoencoder.tflite (tflite, 123184 bytes, 10 tensors)

conv2d_transpose_69/bias f4 [32]
000000 85 32 90 bb 85 01 59 bc b4 f0 38 3d 9f 6a 01 3d
       -0.0044005536 -0.013244991 0.045151427 0.031595822
000010 df 9c 1d 3d 3e 3a 29 3d ff de c5 bb e0 e8 b9 3c
       0.038479682 0.04131531 -0.006038546 0.022694051
000020 55 37 d4 3c f6 13 38 bc c9 f4 f5 3c c4 a1 73 bc
       0.02590529 -0.011235228 0.03002395 -0.014870111
000030 82 8f 2c bc e2 89 7a bc d0 92 5d bc cf aa e7 3c
       -0.010532262 -0.015291663 -0.013523772 0.02827969
000040 9b 89 8d bc 9f 4b 00 bc aa 7c ec 3c 9d 5d 61 bc
       -0.01727753 -0.0078305295 0.028868038 -0.013755229
000050 0c d2 2c bc a9 54 1e ba 43 77 85 bc b0 96 df 3c
       -0.010548126 -0.0006039837 -0.01629222 0.027293533
000060 f5 91 e0 3c bf 7b 8c bc 64 b5 1d 3d 29 cd 05 bc
       0.027413348 -0.01714885 0.038503066 -0.00816659
000070 de 13 19 bc 90 d1 8d bc a3 8a 09 3d 9c 78 45 bc
       -0.009343116 -0.017311841 0.03357948 -0.012052681

conv2d_transpose_68/bias f4 [32]
000000 3f 15 34 3d dc b2 da 3c 98 91 06 3d 54 9b 4c 3d
       0.043965574 0.026696615 0.032853693 0.04995282
000010 11 6c 16 3d c0 bc 07 3d 4d 2a bf 3c 83 0e 48 bc
       0.036724154 0.03313899 0.0233356 -0.012210491
000020 48 f9 0b 3d f0 81 0d 3d b1 27 e2 bc 2b 26 b0 bc
       0.03417328 0.034547746 -0.027606817 -0.021502575
000030 a3 8e ed 3c c6 7c 0c 3d f7 2d 5f bc eb 00 99 bc
       0.028998679 0.03429868 -0.013621799 -0.018677196
000040 9f 87 10 3d d7 29 6e 3c c0 f0 17 3c 84 90 e9 bb
       0.03528559 0.014536343 0.009273708 -0.0071278233
000050 52 3e 92 bc a3 d4 49 bc 43 37 9f bb 41 6a df 3c
       -0.017851982 -0.012318763 -0.0048588826 0.027272345
000060 fd 10 8d bc c6 47 16 3d c8 55 ff 3c c2 61 0d 3d
       -0.017220015 0.036689542 0.031168833 0.034517057
000070 a8 52 82 bc bc 9f 0e 3d c0 04 9e bc 82 79 a3 bc
       -0.015908554 0.034820303 -0.019289374 -0.0199554

conv2d_105/bias f4 [32]
000000 7c cc 2a 3d c8 1d 7f bc 29 49 bc 3c 57 44 e8 3c
       0.041698918 -0.015571065 0.022984104 0.0283529
000010 0d 5c d5 3c 68 07 ad 3c 3b 35 8b bc 2b a4 e9 3c
       0.02604487 0.021121696 -0.016993156 0.028520664
000020 d7 d9 1d 3d c0 57 3e bc d0 fe 19 3d 8c a0 01 3d
       0.038537826 -0.011617601 0.037596524 0.03164725
000030 33 35 08 3d 75 82 dd ba 19 10 97 bc 0b be a7 3c
       0.03325386 -0.0016899841 -0.018440293 0.020476362
000040 e2 22 01 3d 75 ce f0 3c 60 4e 0c 3d c3 9b 41 bc
       0.031527407 0.029395321 0.03425443 -0.011816922
000050 09 76 d2 3c 41 ea dc 3c ed c8 aa bc ef 70 0c 3d
       0.02569105 0.02696717 -0.020847762 0.03428739
000060 66 4e 60 3c f8 ea 93 bc 88 9f dd 3c 07 79 b9 bc
       0.013690567 -0.018056378 0.02705361 -0.022640718
000070 28 94 4c bc 0d 40 f5 3c bd a6 83 bc b4 30 d0 bc
       -0.012486495 0.029937768 -0.016070718 -0.025413848

conv2d_104/bias f4 [32]
000000 de d2 ea bc fd 04 82 bc 72 75 c0 bc 89 1c 02 3d
       -0.028665002 -0.01587152 -0.023493502 0.031765494
000010 15 fd 2d 3d bf c7 04 bd 12 10 8a bc 50 a7 1a 3d
       0.042477686 -0.032417055 -0.016853366 0.037757218
000020 a0 10 1e 3d d6 a1 af bc 2a dd 14 3d 8a fe e8 3c
       0.038590074 -0.021439474 0.03634373 0.028441686
000030 c7 04 e0 3c 05 91 0d 3d b9 b6 23 3d 6c 16 22 3d
       0.027346028 0.03456213 0.03996918 0.039572164
000040 72 a1 27 3d 23 7c 99 bc d8 4d 1d 3d 2d 6c ac bc
       0.04092545 -0.01873595 0.038404316 -0.021047676
000050 11 1d 8d bc c2 09 e6 bc fe 1d 2a 3d 5a 59 29 3d
       -0.017225774 -0.028080825 0.04153251 0.041344978
000060 81 35 21 3d 42 64 29 3d 36 78 01 3d 1c 8b 3e 3d
       0.039357666 0.04135538 0.031608783 0.046519384
000070 3f 61 06 3d f1 f4 a4 bc 29 40 0d 3d d6 1a d2 ba
       0.032807585 -0.020136328 0.034485016 -0.0016029726

model_32/conv2d_104/Conv2D f4 [32, 3, 3, 3]
000000 7e d1 3a 3d dc 7e d1 bc 57 b9 bd bd f8 13 7d bd
       0.045609944 -0.025573187 -0.092638664 -0.06178662
000010 fc fd 6d 3d a3 03 b2 bd af 5c da 3d 8e 55 21 bd
       0.058103547 -0.086921 0.10662209 -0.039388232
000020 71 39 01 3e 8f a2 63 3b 8d 2d 08 3e a8 a4 b3 3d
       0.12619568 0.0034734344 0.13298626 0.0877164
000030 d8 50 9b bc 2c 13 84 bb 5c 2e 18 3e 36 c4 e0 3d
       -0.018959448 -0.004030606 0.14861435 0.10974924
000040 4d 2a 93 3c b2 67 dd 3d 7c 3d ff 3d fb c3 a0 3d
       0.017964507 0.10810794 0.12462899 0.0784988
000050 2b 54 fe 3d ca 7d 17 3e a9 46 0d bc ed 18 91 3d
       0.124183975 0.14794078 -0.008622804 0.07084832
000060 2d 80 5b 3d 51 ea 0b 3e 11 ef 85 bd 10 d7 0e 3b
       0.053589035 0.13663603 -0.06539739 0.0021795668
000070 5c 9f af bd 0b d3 f4 3b b4 8c d1 3d 22 a5 14 3e
       -0.08575317 0.0074714473 0.10231915 0.14516118
000080 9e d3 6b 3d 75 db 94 bd 4e 7f 61 3d 81 20 a4 3c
       0.05757486 -0.072684206 0.055053048 0.02003503
000090 84 66 56 bd d5 03 42 bc 39 66 ce bd 50 d7 5e 3d
       -0.05234386 -0.011841734 -0.10078091 0.054404557
0000a0 53 67 72 3d 31 bd 1e 3e 83 2d 0a 3e 3c 23 aa bd
       0.05918057 0.15501858 0.13493924 -0.08307502
0000b0 c3 fd b8 3d 7a 34 28 bd ce 38 84 bd fd eb ce bb
       0.09032776 -0.04106567 -0.06456147 -0.006314753
0000c0 5e 9e ad b9 76 b2 12 3e 88 1b 60 3d ae a5 05 3e
       -0.00033115124 0.1432589 0.054713756 0.13051483
0000d0 db 8c 93 3d e7 25 8a 3d 8e b3 db bd b5 2a 1b 3b
       0.072046004 0.067455105 -0.10727607 0.0023676578
0000e0 7a da ca 3c c4 9e c8 3d cf 70 88 bd d3 d0 03 3e
       0.02476238 0.09795907 -0.066621415 0.12872629
0000f0 92 40 04 3e 17 81 bf 3d 13 fc c9 3d 83 0c 03 3e
       0.12915257 0.09350794 0.098625325 0.12797742
000100 f0 3c a6 3c 61 28 64 bc 21 e8 89 bd 8e f7 26 3d
       0.02029273 -0.013925643 -0.06733728 0.04076343
000110 0f 91 d5 3c a1 63 5c 3d 84 58 52 3d 5b 9c 89 3d
       0.026070146 0.05380595 0.051353946 0.067192756
000120 22 29 e1 bd 5b b4 25 bd 9f 92 d0 3d fd 20 44 bd
       -0.109941736 -0.040455204 0.10184216 -0.047883023
000130 e3 8e 06 3e ac b2 8d 3d 08 96 b3 bc dc ca f6 39
       0.13140444 0.069188446 -0.021922126 0.00047071918
000140 0d 16 03 3e fd 6d 76 bd 0f b1 72 3b ec 10 46 bd
       0.1280138 -0.060163487 0.0037031805 -0.04835598
000150 04 7c c0 3d dc 64 23 3a 91 ae d8 3d e2 4b b5 bd
       0.09398654 0.0006232986 0.10580171 -0.08852364
000160 58 49 41 bd ec 36 1d 3c fc 1f 53 bd d1 bf cf bd
       -0.047189087 0.009595614 -0.051544175 -0.10144008
000170 80 c0 53 bb 03 2b b0 3c ee db 07 3e 18 56 4e bc
       -0.0032310784 0.021504885 0.1326749 -0.012593769
000180 f4 3d 8e 3d 13 4a 69 3d ad c7 b1 bd bb f1 5f 3d
       0.0694541 0.05695541 -0.08680663 0.05467389
000190 35 74 00 bd 75 8c 78 3d ad e2 78 3d d7 84 a5 ba
       -0.031360824 0.060680825 0.06076305 -0.001262809
0001a0 d0 a3 56 3d 9a f3 c6 bd 10 db d1 bd 56 ec 1b 3e
       0.052402318 -0.09714432 -0.10246861 0.15226874
0001b0 b2 e0 9d 3d 3c a0 b7 bd d5 b9 09 3e 5c 02 64 bd
       0.07708873 -0.08966109 0.13449796 -0.055666313
0001c0 45 ea 48 bc 4f e4 19 bd 63 3a 19 3e 96 60 0e 3d
       -0.012262885 -0.037571248 0.14963679 0.03476008
0001d0 28 f4 d3 bd 30 b7 f5 bd f4 d7 76 3d 01 4c 93 bd
       -0.103493035 -0.11997831 0.060264543 -0.07192231
0001e0 79 7c 5d bd 7d 4c 73 bb 5d 9c b2 3d 7e 93 f2 3d
       -0.054073785 -0.0037124448 0.0872123 0.11844538
0001f0 ce c1 38 3d 6e 76 d4 ba b2 04 b0 bd 2d 39 bd bd
       0.0451067 -0.0016209611 -0.085946456 -0.09239421
000200 6c 07 e8 bc c2 19 e4 3d d8 de 2f bd 45 85 c3 bd
       -0.028323852 0.111377254 -0.04293713 -0.095469035
000210 ef ff 3c bc 9f 30 0d be fd cc de bd 4a c2 22 3d
       -0.011535629 -0.13788079 -0.10878942 0.03973607
000220 93 f1 eb bc e1 ea 54 3d ac 8d e5 3d 12 cf 08 3e
       -0.028801715 0.05198181 0.112086624 0.13360241
000230 c7 b2 42 3d aa 3f a2 3c e2 24 ef 3d a6 25 4b bd
       0.047533777 0.019805748 0.11676957 -0.04959645
000240 90 29 22 bd 7b 15 9f 3c ee 90 ba bd 0f ab 96 3d
       -0.03959042 0.019419422 -0.091096744 0.073568456
000250 4e b3 83 3d a3 66 c8 3d 07 00 0e 3e 82 c7 fd 3d
       0.06430684 0.097852014 0.13867198 0.12391569
000260 94 0b 78 bd 5d c4 99 bd 6d 72 d2 bc 60 68 c2 3b
       -0.060557917 -0.075081564 -0.025689328 0.0059328526
000270 45 8b 08 3d f7 2e f5 3d 4e 25 00 3d 52 0e fc 3d
       0.033335943 0.119718485 0.031285577 0.12307419
000280 7e 85 cd 3c 76 18 a8 3d 03 44 4e bc f1 10 3c 3d
       0.025088068 0.082077906 -0.012589457 0.045914594
000290 e7 92 0b 3e f8 02 41 bb ce e8 9d 3d 55 c0 88 bd
       0.13630258 -0.0029451232 0.077104196 -0.066773094
0002a0 23 be 4d 3d 52 8c 16 3e 4b 3e f5 bb 24 74 13 3e
       0.050230157 0.14701965 -0.0074842325 0.14399773
0002b0 a0 fd c9 3d 6b ec 1b 3e c5 93 35 bd de 7d df bd
       0.09862828 0.15226905 -0.044330377 -0.10912679
0002c0 3b 47 a2 3d 54 71 b7 3d 5a 50 1b 3e d8 62 d1 3c
       0.079237424 0.089571625 0.1516737 0.025559828
0002d0 15 a9 a4 3d ad 77 10 3e 94 0b 3e 3d ea a5 84 bd
       0.08040062 0.14108153 0.04639776 -0.06476958
0002e0 8e ef 37 3d 6b d6 da ba e9 3a 0f 3e 47 ec fc 3d
       0.04490619 -0.0016695982 0.13987316 0.12349754
0002f0 f6 c7 63 3d 36 4f 30 b9 eb 40 fd bd 77 07 04 3e
       0.05561062 -0.00016814176 -0.12365898 0.12893473
000300 1c 89 45 bc dd 90 8b bb 89 62 0c 3e b6 33 c6 bd
       -0.012056615 -0.0042592124 0.13709463 -0.09677832
000310 79 bf 22 3c 37 b3 83 3c 3c be b8 bd 84 90 bf bd
       0.009933346 0.016076667 -0.09020659 -0.09353736
000320 48 dc 9c 3c f9 25 1d bd 6e 3c d1 3d 59 17 d0 3d
       0.019148007 -0.03836629 0.10216604 0.10160703
000330 53 48 06 bd 48 1d b6 3d 7f 15 09 3e 77 16 a5 3d
       -0.032783817 0.08892304 0.13387106 0.080609255
000340 68 10 86 3d 72 b5 c5 bd cd 00 bb 3d c4 c1 56 bd
       0.06546098 -0.096537486 0.09131012 -0.052430883
000350 a7 5e ba bd ba e0 fa bd e3 bb e0 bd 29 8b 82 3d
       -0.09100085 -0.122498944 -0.109733365 0.06374199
000360 22 02 ac bd 8d 0a aa bb dc cf 8a bc 41 52 95 3d
       -0.08398844 -0.005189246 -0.016944818 0.07291079
000370 a4 8a 15 3e 39 df fc bd de 18 f2 bd 75 31 34 bd
       0.14603668 -0.12347264 -0.11821149 -0.04399248
000380 9c 3e c1 bd fb 4e f7 bd c9 6e eb 3d c8 15 17 bd
       -0.0943577 -0.12075611 0.1149574 -0.036886007
000390 ce dd db bc 09 b2 11 be 19 14 70 3a 3a 09 00 3e
       -0.026839163 -0.14228071 0.0009158268 0.1250352
0003a0 a6 94 0b bb 1c fa a2 3c 72 7c 41 bc ca e4 a8 bd
       -0.0021298318 0.019894652 -0.011809455 -0.08246763
0003b0 c7 9c b4 3c b7 cc 8c bd 60 b1 86 bd cc 5f 3b bd
       0.022047414 -0.06874984 -0.065768 -0.045745656
0003c0 65 0a 08 3e 16 47 b0 3d 07 2e c6 bc 8d d2 9d bc
       0.13285215 0.086073086 -0.02419187 -0.019265437
0003d0 9d b1 a1 bd 17 f3 fa 3c 7c d6 fb 3d 60 ee ce bd
       -0.07895205 0.030633492 0.12296769 -0.1010406
0003e0 7a 85 1e 3e eb 2e b4 3d de 92 67 3d 19 cb d9 3d
       0.15480605 0.087980114 0.056536548 0.10634441
0003f0 e2 c1 f8 3d 0d e8 13 3d c8 e3 08 3e c8 69 03 3e
       0.12146355 0.036109973 0.13368142 0.12833321

model_32/conv2d_105/Conv2D f4 [32, 3, 3, 32]
000000 6a 2a 0c bd b0 fc dd bd 8f f5 22 bc b0 72 92 bd
       -0.034220137 -0.10839212 -0.009946241 -0.07150781
000010 04 18 d4 3b ff 7f 9d bd 0e 34 85 bd f2 25 b0 3d
       0.0064725894 -0.07690429 -0.06504069 0.086009875
000020 9d 0b b4 bc 0c 6a 21 bd c4 2a ba bc 70 9c 88 bd
       -0.021978194 -0.039407775 -0.02272547 -0.06670463
000030 5c 0a 5a 3d c3 65 c2 bc 1f 58 d5 3d 4a 34 70 3d
       0.053232536 -0.023730164 0.104171984 0.058643617
000040 4c f8 82 bd f9 c4 18 bd b0 3e cc bd e8 4c 44 bd
       -0.06395015 -0.037297223 -0.09972894 -0.047924906
000050 6d ad 1a bc de d4 46 3d 3c 0f e2 bc b8 8e a0 bc
       -0.009440762 0.04854285 -0.027595155 -0.019599304
000060 0f 0b 92 3d c1 b9 66 3d 50 d5 e6 bc ac 01 38 3d
       0.071310155 0.056329492 -0.028177887 0.04492347
000070 21 40 9e 3d 2c c7 6f 3d b6 d4 11 3a 82 52 a5 bc
       0.07727075 0.058539554 0.00055630074 -0.020180944
000080 83 d8 57 bd f2 b7 87 bd e3 37 b8 3d 4e a5 9f bd
       -0.052696716 -0.06626882 0.089950345 -0.07795201
000090 5d 20 4c bd 0c 06 c5 3d 2f ff 8f bd 8b c7 c4 bc
       -0.04983555 0.09620294 -0.07031094 -0.02402093
0000a0 bb 22 78 3d 15 1b 89 3b b9 38 64 3d cd 66 fd 3d
       0.060579997 0.0041841366 0.055718157 0.12373123
0000b0 5e b7 7f bd e1 54 7b bd ec 80 79 3c 14 5a 2e 3d
       -0.062430732 -0.061360244 0.015228491 0.042566374
0000c0 81 2e c5 bc 00 23 91 3d 86 97 be 3d be 9c ab bc
       -0.024070026 0.07086754 0.093062446 -0.020948764
0000d0 c0 b6 88 3d 5f 79 b2 bc 7b d6 d5 3c db f7 03 3d
       0.06675482 -0.02178639 0.026103249 0.032218795
0000e0 1a 69 08 3e b0 a3 6a bd 25 72 78 bd 1d ed 51 3d
       0.13321343 -0.05728501 -0.06065573 0.05125152
0000f0 f8 fd a1 3d af 11 3c 3d e9 aa 6f 3d a1 5d 08 3d
       0.07909769 0.045915302 0.058512602 0.033292416
000100 f8 3a d3 bd 25 a1 ad 3d 85 08 90 3d a1 f3 1b bd
       -0.10313982 0.084780015 0.07032875 -0.03807414
000110 2c a1 91 3d 75 8a b7 bd 2b e2 a6 3d 45 ee 07 3d
       0.07110819 -0.089619555 0.08148607 0.033186216
000120 bd 87 57 bd ef 43 cc bd 1f 9e e5 3d b1 ec 0e 3e
       -0.052619684 -0.09973895 0.112118 0.13957478
000130 50 21 9f 3d 6a 05 e6 3d 71 bf 90 bc 6a 5d cc bc
       0.07770026 0.112315014 -0.017669411 -0.024946887
000140 bb e0 5f 3c 63 57 84 3d 1f a3 99 bd 8d d8 b7 3d
       0.01366442 0.0646198 -0.07501816 0.08976851
000150 7f d0 a7 bc 43 be aa bd 7e 47 c1 3d 02 9a e4 bc
       -0.02048516 -0.08337071 0.09437464 -0.027905468
000160 75 96 64 bd b9 d7 e8 bc de 73 02 3c e8 a2 27 bc
       -0.05580755 -0.028423177 0.007962195 -0.010231711
000170 ea e9 c3 3d e0 11 c9 3d d1 6a 58 bd 52 25 c1 bd
       0.095661 0.098178625 -0.052836243 -0.094309464
000180 05 8b 9e 3d 68 d3 37 3d a9 4a 91 bd 42 4e 0b bd
       0.077413596 0.044879347 -0.070943184 -0.03401018
000190 66 d4 c2 3c a1 83 09 ba 03 87 a9 3d eb c2 d9 bc
       0.02378292 -0.00052457495 0.082777046 -0.026582202
0001a0 01 01 58 3d 0f 6e 14 39 e1 2c b7 3b 1d b2 b8 3d
       0.052735332 0.0001415538 0.005590067 0.090183474
0001b0 80 7a c5 bd 86 15 57 bd 10 fb 20 bc ed a4 57 bd
       -0.09642506 -0.05251076 -0.009825483 -0.05264752
0001c0 34 17 26 bd fb e3 9b bc 6a 93 a3 3c c9 d2 96 bd
       -0.040549472 -0.019029608 0.019967753 -0.07364423
0001d0 0e 8b 82 bd 75 46 8a bd c2 0e e5 3d 96 c1 91 3c
       -0.06374179 -0.0675172 0.111844555 0.017792504
0001e0 ed 73 7b 3d 42 3d a7 bd 36 cf bb 3d c7 b1 41 3d
       0.061389852 -0.08165981 0.09170382 0.047288682
0001f0 d8 2e 32 bd 0f 05 a5 bc 02 ca 96 bd 39 c3 a8 bd
       -0.043501705 -0.020144014 -0.07362749 -0.08240361
000200 ae cc 97 bd 88 1e 9a bd 00 a6 2f bc a8 9d e8 3c
       -0.074120864 -0.075253546 -0.01072073 0.028395489
000210 a4 e1 cf 3d 7c f6 00 3d e6 a5 5a bd ac 7e 6f ba
       0.101504594 0.031485066 -0.05338087 -0.0009136002
000220 88 18 9a 3c da 5c 8c bd 5d d6 6e bd a1 3e 8e 3d
       0.018810526 -0.068536475 -0.0583099 0.06945539
000230 e1 ca 5c bd 04 87 c4 3d 4f 95 84 3b 5d cc 10 3d
       -0.053904418 0.09596065 0.0040461193 0.035351146
000240 8e 9b 3c bd e4 61 6a 3c 37 a4 ba bd 7f 06 f7 bc
       -0.046046786 0.0143055655 -0.09113353 -0.030154465
000250 3a 82 82 3b 55 32 26 bd 0f 30 da 3c 74 cd 08 3e
       0.0039828094 -0.040575344 0.026634244 0.13359624
000260 03 d1 eb 3d 12 0b 4c bd 30 5c af bb 52 2e 2d bb
       0.11514475 -0.049815245 -0.005351566 -0.0026425314
000270 49 1c ef bb cf cc b6 3b 04 97 c0 bb 70 4b 8d bb
       -0.007297073 0.0055786143 -0.0058773775 -0.0043119714
000280 46 28 85 bd 20 b8 91 bd c6 2a 26 bd 67 ff a2 bd
       -0.06501822 -0.07115197 -0.040568136 -0.079588704
000290 51 da 83 3d 1e 87 38 3a f4 3e 5e bd 8e 0d 95 bc
       0.06438125 0.0007039177 -0.054259256 -0.01819494
0002a0 25 2f 1c 3e d5 4e 88 3d 54 ad ae 3d 4d d4 fa bb
       0.15252359 0.06655661 0.085291535 -0.0076547028
0002b0 e8 78 10 bd 75 26 ab bc 68 9d 13 3d a5 2e 15 bd
       -0.035271555 -0.020892361 0.036038786 -0.036421437
0002c0 e8 20 ba bc 71 dd 3a 3d d3 15 a5 3d 67 46 7e 3d
       -0.022720769 0.04562134 0.08060803 0.06207886
0002d0 08 92 9e bd 45 d7 5a bd 10 08 59 3d 76 55 01 3e
       -0.07742697 -0.053427953 0.052986205 0.12630257
0002e0 b5 f7 a5 3d 30 1d ef 3d b8 ad 08 3e 05 24 09 bd
       0.08103887 0.11675489 0.13347518 -0.033481617
0002f0 a9 9d e8 bc 82 dd a6 3d f0 4f 28 3c f8 85 5c bd
       -0.02839549 0.08147718 0.010272965 -0.0538387
000300 27 3c c3 bc 32 f7 20 3d e8 9f 8d 3c 33 a7 91 3d
       -0.023832394 0.039298244 0.017288163 0.07111969
000310 f6 6e 2c 3c 06 c7 85 3d 0d ee 8d 3d f2 99 44 bd
       0.010524502 0.06532101 0.0693017 -0.047998376
000320 b2 06 5c 3c 39 b2 c4 bc a4 1b ad 3d 15 8a d4 3d
       0.013429331 -0.024010764 0.08452538 0.103778996
000330 55 fe bc bd ac 1e 2f 3c b7 22 b5 3d 93 36 06 bd
       -0.092281975 0.010688465 0.08844512 -0.03276689
000340 49 e4 0a 3d a2 88 a4 3d a6 b7 7f 3b 7b 08 b6 3c
       0.033909116 0.08033873 0.0039019375 0.02222084
000350 bf e0 d0 3c 48 6c cd bd 0e 83 ac 3b 52 48 29 3d
       0.025497792 -0.10030419 0.0052646464 0.041328736
000360 a5 c3 05 3d 24 22 6e 3c 98 94 d8 bc 91 7d 04 bd
       0.032657284 0.014534507 -0.026438043 -0.032346312
000370 58 e2 a0 bd 89 1a 08 3d f8 02 bc bc d6 be 62 3d
       -0.07855672 0.03322843 -0.022950634 0.055357777
000380 74 31 18 bd fc 32 53 3d 24 31 a1 bd 6d b3 89 bd
       -0.037156537 0.051562294 -0.07870701 -0.06723676
000390 76 e9 a1 3d 9b de b8 bd 47 19 3e 3b 2d f8 8b 3d
       0.07905857 -0.090268336 0.0029006766 0.06834445
0003a0 db e1 11 3e 2f 99 47 bc 43 8b 06 3e 9d cb 73 3d
       0.14246313 -0.012182518 0.13139062 0.059520353
0003b0 b9 c8 5f bd 6a ed 00 3e a8 5c 1a 3c 42 e0 fe 3b
       -0.054634783 0.12590566 0.009421505 0.0077781985
0003c0 b4 3f a4 3c 5c 3d 52 3b 20 23 87 bc b8 d5 d4 bd
       0.020049907 0.003208003 -0.016496241 -0.10392326
0003d0 e0 87 b8 3d 07 12 d0 3d 98 c3 23 3d 0c 40 17 3d
       0.09010291 0.101596884 0.039981455 0.036926314
0003e0 e7 ae 0c 3d f8 92 56 3d 68 2e 35 bd dd 0c c0 3c
       0.034346487 0.052386254 -0.04423371 0.023443634
0003f0 c8 5f be 3d 6a 5d c5 3d de e3 4d 3d 26 ec 0b bc
       0.092956126 0.09636958 0.05026614 -0.008540189

model_32/conv2d_106/Conv2D f4 [3, 3, 3, 32]
000000 d7 79 e7 3d f6 27 ac bd 8b 19 04 3d 8a 46 4c bd
       0.11302536 -0.084060594 0.032250922 -0.04987196
000010 6d 37 a0 bd d5 51 aa bd e7 58 b3 bc d1 4e ec bd
       -0.07823072 -0.083163895 -0.021892978 -0.115384705
000020 78 db e0 bc 1f bb f9 3a 56 dc be bd 41 fb f2 bd
       -0.0274484 0.0019052959 -0.093193695 -0.11864329
000030 b8 c7 56 bc 9f 10 6f 3d ff 2f 03 3d a9 c4 a9 bc
       -0.01310914 0.05836546 0.032028195 -0.020723658
000040 ca b5 66 3c 6b 3e 98 3d c7 1d 3d ba 14 02 b5 3c
       0.014081428 0.0743378 -0.0007214215 0.022095717
000050 5d 0c f6 3c e8 c0 73 bd ba ba b5 bd 4b 57 18 be
       0.030035192 -0.05951014 -0.08873506 -0.1487705
000060 6d 8b c9 bd 16 c8 c8 3d 49 56 b3 bd ec 59 cd 3d
       -0.098410465 0.09803788 -0.08756692 0.10026917
000070 c1 e9 f7 3d 05 fc e7 3d 69 ee 4b bd 01 30 42 bc
       0.12105132 0.11327366 -0.049787913 -0.011852265
000080 10 3e e0 3d 49 1c 2f 3b 55 07 91 3d 93 ea 0a be
       0.109493375 0.002671974 0.070814766 -0.13566045
000090 35 c9 0c 3d 17 b0 48 3d 1e 1d c3 bc 72 9d 22 be
       0.034371573 0.048996057 -0.023817595 -0.15880373
0000a0 6c d2 75 3d dd 9c 5f 3d 5b e7 04 be 86 5c 78 bd
       0.060015127 0.054592956 -0.1297888 -0.060635112
0000b0 8a 58 fd 3d 78 67 e5 bd b8 c4 50 3d eb e9 84 3d
       0.12370403 -0.11201376 0.050968856 0.06489929
0000c0 7b 61 c8 bd 14 c0 de 3d 67 d6 a0 3c 8d 35 21 3d
       -0.09784218 0.1087648 0.019633485 0.03935771
0000d0 18 92 ed 3d 05 77 b8 bd bb a4 05 3c 53 67 e1 bd
       0.11600131 -0.09007076 0.008156951 -0.11006036
0000e0 04 93 25 be 36 2b c6 bd 92 11 85 3c ec 7f 52 3d
       -0.16169363 -0.096762106 0.01624373 0.051391527
0000f0 8b 66 c8 bc d4 86 9c bd ec 38 07 be 68 d7 92 bd
       -0.024462959 -0.07642904 -0.13205308 -0.07169992
000100 5b a3 a3 3b ca 24 a5 bd 2e 37 5e 3d c5 98 bb bd
       0.0049938387 -0.080636576 0.054251842 -0.09159998
000110 7f b0 be 3d b3 ce 45 bc 0f 1a 81 bd 3c 96 c3 bc
       0.09311008 -0.012073207 -0.063037984 -0.023875348
000120 3f 92 75 3d b9 a6 11 3e 69 eb 39 3b 92 0a 9d bb
       0.059953924 0.14223756 0.0028369075 -0.00479252
000130 d7 2d 49 bc bb 94 a2 bd bd 12 8b 3d 3d f4 bb 3d
       -0.0122789955 -0.07938524 0.067906834 0.09177444
000140 56 7a 48 3d 9d 0f 63 3c 54 ce dc bd b3 77 b2 3d
       0.048944794 0.013858703 -0.107815415 0.08714237
000150 3f da f0 3d 2f d8 e0 bb 33 b8 bf 3d ae 33 ce bd
       0.11760377 -0.0068617086 0.09361305 -0.10068451
000160 a9 d6 54 3d ea 31 5f 3d 0f a4 00 be 95 10 15 3e
       0.05196253 0.05449096 -0.12562583 0.14557107
000170 be 07 ab bd bf e3 f1 3d e1 bc 18 be 29 5a 82 3d
       -0.08351086 0.11811017 -0.14915802 0.06364853
000180 ce fd 12 3d 5c 96 11 3e ab d2 1e be 74 6e 10 be
       0.03588658 0.14217514 -0.15510051 -0.14104635
000190 61 6d a0 3d e7 a3 29 be 2b 21 00 be f2 c8 98 3d
       0.07833362 -0.1656643 -0.12512653 0.07460202
0001a0 c0 0f 9b bd bd 16 22 bd d6 68 b0 bb f3 10 81 bc
       -0.075713634 -0.039572466 -0.005383591 -0.015755152
0001b0 5d 6f ff 3d e9 4a 69 3d e5 c9 1d 3e 73 3e cc bd
       0.12472413 0.056956206 0.15409048 -0.09972849
0001c0 80 c3 0e 3e 23 0c 95 bd 7c 58 92 bc 70 79 38 3d
       0.13941765 -0.072777055 -0.017864458 0.045037687
0001d0 22 77 bf bd 4c 13 1c bc 2c 40 96 3d bb d9 0d 3d
       -0.09348895 -0.009526085 0.073364586 0.034631472
0001e0 30 5d b7 3d 22 9c a7 3c 64 66 ab 3d c4 5e 4f bd
       0.08953321 0.020460192 0.08369139 -0.050627485
0001f0 5a 3a cd 3d bb c7 a9 3d 47 44 2b be 05 d8 4e bd
       0.10020895 0.08290049 -0.16725264 -0.05049898
000200 d3 ea ef bc 7c f5 56 bd 41 ce b9 bd bc df 28 3d
       -0.029286778 -0.052480206 -0.09072543 0.041228995
000210 c8 2c 11 3d 0d b5 0b be f6 01 0e 3e 1e f7 18 be
       0.035443097 -0.13643284 0.13867936 -0.14938018
000220 96 b6 20 be 01 5d 9d 3c df 5d df bc a0 16 03 3e
       -0.15694651 0.019209387 -0.02726644 0.128016
000230 44 63 85 3c 49 b5 f3 3d b1 7e d8 ba 05 0e 8a 3d
       0.016282685 0.11899812 -0.0016517249 0.06740955
000240 0e ea 77 3c 6b cb 93 3d 24 83 80 bd b5 b7 e0 3d
       0.015131487 0.07216533 -0.06275013 0.10972539
000250 4e 75 0d 3d fc a0 ea 3d bc c5 71 3d d6 38 65 3d
       0.0345357 0.114564866 0.059026465 0.055962406
000260 a9 23 1c be 32 0e 15 3e ff df 9c 3d ff 87 b5 3d
       -0.15247978 0.14556196 0.07659911 0.0886383
000270 87 7a bc bd 88 d5 1c 3e a2 cb 33 be 09 50 98 3b
       -0.09203058 0.1531583 -0.17558149 0.004648213
000280 b4 09 15 3e 9c 99 e7 3d 9d 8d 10 be f3 a2 4c 3d
       0.14554483 0.113085955 -0.14116521 0.049960088
000290 67 b1 ff bd 39 82 35 be 61 76 07 3e 5b ae f3 bb
       -0.12485009 -0.17725457 0.13228752 -0.0074365563
0002a0 bd 44 11 bd cf 4e b7 bd 0c b3 7a 3d 33 69 9c 3d
       -0.035465945 -0.089505784 0.06120591 0.07637253
0002b0 66 97 fe bc 43 48 16 3d 4e 04 4d bd 13 38 c1 3d
       -0.031078052 0.036690008 -0.050052933 0.094345234
0002c0 4e a1 80 3d 07 79 d1 bb eb 09 af bd 36 5d 28 bd
       0.062807664 -0.0063926014 -0.085468136 -0.041104518
0002d0 66 cf a3 bd 0e 0a ce 3d 46 ba a1 bd 9b c7 04 be
       -0.079985425 0.100605115 -0.07896857 -0.12966768
0002e0 0f 5b f2 bd 77 bc d1 bd 9d 73 cb 3d 30 63 d8 3d
       -0.11833774 -0.10241025 0.09934161 0.105657935
0002f0 f0 b7 1f 3e 8a 68 76 bd 8e 0a c6 bd de d5 2e 3e
       0.1559751 -0.06015829 -0.09669982 0.17073771
000300 3f 8b db bd a0 c3 1b 3e a0 ec 04 be a8 e4 32 3d
       -0.107199185 0.15211344 -0.1298089 0.043675095
000310 c5 91 bb 3d 54 49 c6 3c b9 35 4d bb aa cc aa bd
       0.09158663 0.024204887 -0.0031312539 -0.08339818
000320 24 b3 e7 3c f5 5f 18 3e 81 79 9a 3a e3 d9 61 bb
       0.028283663 0.14880355 0.0011785479 -0.0034462146
000330 a4 1f 16 3e 5f 25 8e bd 61 0c 51 3c d9 f1 df 3d
       0.14660507 -0.06940722 0.012759299 0.10934801
000340 4f d8 cb bb 25 c8 c0 bd 95 61 9f bd f3 19 5d 3c
       -0.0062208544 -0.094131745 -0.07782284 0.013494956
000350 c9 9f 00 3e f8 39 1f bd ac e6 56 3d e7 75 44 bd
       0.12560953 -0.038873643 0.05246608 -0.047964003
000360 89 58 f9 bd 9a 0d a1 3d a1 19 3a bd 6e a9 c2 bd
       -0.1217509 0.078639224 -0.045434598 -0.095049724
000370 51 b2 38 bd 99 a6 8f 3c 44 57 09 be a5 b0 86 3c
       -0.04509193 0.017535495 -0.13412195 0.016441653
000380 fe e8 e3 bc f9 62 d4 bd 39 b4 57 3d 0c 7a 94 bd
       -0.02782106 -0.1037044 0.052662108 -0.07249841
000390 00 1b 7c bd 18 3f ec bd d7 f6 aa 3d fc 5e ee bc
       -0.061549187 -0.11535472 0.08347862 -0.029098026
0003a0 b3 fe e5 bd 33 4f 5a 3d f6 a9 1b bd e2 d6 f6 3d
       -0.11230221 0.053298187 -0.038003884 0.120527044
0003b0 9e f5 2c 3e d6 89 e5 3d 51 50 94 bd c8 d3 0d 3d
       0.1689057 0.11207931 -0.07241882 0.0346258
0003c0 9b 52 28 3e 9d 0c 0e 3e 59 b7 1c be ab 1a 97 bd
       0.16437761 0.13871999 -0.15304317 -0.073781334
0003d0 dc d6 b8 bd 18 3b bc 3b 6e 49 ed 3d ab 09 70 bd
       -0.09025356 0.005744349 0.11586271 -0.05860297
0003e0 99 b9 cc bd c3 13 79 bd a3 56 7f bd fe 4a ce 3c
       -0.099963374 -0.060809862 -0.062338483 0.025182243
0003f0 80 51 e1 3d fa b4 2f 3d 76 b6 46 3d d3 0c d8 3d
       0.11001873 0.042897202 0.048513852 0.10549321

model_32/conv2d_transpose_68/conv2d_transpose f4 [32, 3, 3, 32]
000000 e8 d0 45 3e 1d 2b 3e bc 0d 2c 9d 3d a7 36 c7 3c
       0.19317973 -0.011606959 0.07674418 0.024318052
000010 0f b9 83 3b 72 75 05 3e ee 47 07 bc 9a 77 fe 3b
       0.0040198634 0.13033083 -0.0082568955 0.0077657225
000020 b5 d4 25 3d b7 a0 80 bd ec c9 93 3d 3c b9 7c bd
       0.040486056 -0.06280654 0.07216248 -0.06170009
000030 f6 90 ba 3d 09 25 0f 3d 0c cd b6 3c f7 15 a0 3d
       0.0910968 0.03494743 0.02231457 0.078166895
000040 b7 e0 0f 3d 00 6d 6e 3d 17 0a 2b 3d 2d 38 de bd
       0.035126414 0.05820942 0.04175767 -0.108505584
000050 02 80 11 3c b2 60 9b 3d 42 37 3f bd 1b 83 fd 3a
       0.008880617 0.075868025 -0.046683557 0.0019341441
000060 5b c7 3b 3d 92 20 51 bd 58 df d8 3d dd 45 97 bd
       0.045844417 -0.051056452 0.105894744 -0.07386372
000070 53 de 80 bd 38 84 83 3d b0 a0 84 bd 57 ed 3a 3d
       -0.06292405 0.06421703 -0.06475961 0.0456365
000080 d2 5c 71 3c 03 a2 33 bd a9 07 b5 bb fc 01 6e bc
       0.014731603 -0.04385568 -0.005524595 -0.01452684
000090 31 25 39 bd d4 2c 0e 3d 82 cc 74 bd d6 34 fa bb
       -0.045201484 0.03471072 -0.059765346 -0.007635693
0000a0 0f 43 f0 3d 79 1f 82 bd 50 ad 9d bc e0 de 94 bc
       0.117315404 -0.06353659 -0.01924768 -0.018172681
0000b0 04 37 18 3e 80 d0 a0 3d dc 9a f4 3c b9 7f b5 3d
       0.14864737 0.07852268 0.029858999 0.08862252
0000c0 0f 29 32 bc fc b6 19 3d 19 78 df bc e4 81 e3 3d
       -0.010874047 0.037528023 -0.027278947 0.11108759
0000d0 f9 46 64 bc d9 82 a7 3d 6b 71 86 3d 8e e5 12 bc
       -0.013932937 0.08179254 0.065646015 -0.008965863
0000e0 ff 53 78 bd a4 51 cf 3d fc 64 1c 3e 4a 71 cc 3d
       -0.06062698 0.101229936 0.15272897 0.09982546
0000f0 38 95 4c 3d 65 7e e9 3d cd 1c 93 3d b1 91 bf 3d
       0.049946994 0.11401061 0.07183228 0.0935396
000100 0e 26 c8 3c 00 6d 46 3d b6 ab b2 bd 36 3c 2a bd
       0.024432208 0.048443794 -0.087241575 -0.041561328
000110 80 f7 13 3c b6 f2 b3 3d 18 9d ac 3d c6 46 83 3d
       0.009031177 0.08786528 0.08428401 0.06409983
000120 b5 10 c2 3d bf 53 6c 3d 03 72 f6 3b ea 97 a4 3d
       0.09475843 0.057697054 0.0075209155 0.08036788
000130 3b 42 cc bc 10 ec c1 3d 17 04 aa bd 4f 0d 93 bd
       -0.024933925 0.094688535 -0.08301561 -0.07180273
000140 51 51 a0 3d 43 a5 1a 3e 15 38 61 bd df 5e 96 3b
       0.0782801 0.15102105 -0.054985125 0.0045889462
000150 99 37 ee bc 9a d3 52 3d 13 33 93 3d 49 ed 5a 3c
       -0.029079245 0.05147133 0.07187476 0.013362237
000160 7f 65 8e 3d 9a 3d 90 3d ab 81 f1 3d 99 26 95 b7
       0.069529526 0.070429996 0.1179231 -1.7780158e-05
000170 5f dd 24 bb 00 30 65 bc b0 b6 2f bd 6d 78 6c bb
       -0.0025156362 -0.013988495 -0.042898834 -0.0036082522
000180 ce 57 09 3e 2b d6 8b bd 28 ea 59 bb dd 75 ab 3c
       0.13412401 -0.06827959 -0.003325114 0.020930225
000190 22 f9 3d bd 48 94 6b bd e7 2d ab bd b2 f5 8c 3c
       -0.04638017 -0.05751446 -0.083583646 0.017207
0001a0 64 de aa bc 40 98 c5 bc ed 42 7a 3c ce 6c a5 3d
       -0.020857997 -0.02412045 0.015274745 0.080773935
0001b0 15 2b 02 bd 4c 96 a8 bd 84 0e 29 bd 48 96 f8 bc
       -0.031779367 -0.08231792 -0.04127361 -0.030345097
0001c0 a0 30 ed bc 4c 81 db 3d 7c 8e 99 3d 10 04 7b bd
       -0.02895385 0.10718021 0.0749788 -0.06128317
0001d0 10 0a 75 3d bf 0f ed 3d af a2 85 3d 98 25 d5 3d
       0.05982405 0.11575269 0.0652517 0.10407561
0001e0 c8 3d 84 bc 20 1c 64 3d 46 42 f4 3d 0f f5 15 3d
       -0.01614274 0.055690885 0.11926703 0.03661066
0001f0 60 7f c7 3c 20 0f 28 3d 07 48 35 bc fb 64 41 3d
       0.02435273 0.04103005 -0.011064536 0.047215443
000200 83 db cf 3a 22 39 a6 3c e9 05 26 3d 5a 6b 00 3d
       0.0015858266 0.020290915 0.04053298 0.03135238
000210 e5 2f a8 bd a1 af ff bc a6 7f 59 3d 4d 2e da 3d
       -0.0821226 -0.031211676 0.05310025 0.106533624
000220 bb 86 4a bc b8 cf 08 3b 2b 4c 47 3c 7c 97 96 3a
       -0.012361224 0.0020875763 0.012164156 0.0011489238
000230 7c d0 e4 3b 33 50 ac 3d 81 f7 a1 3d 2c 53 20 3d
       0.006982861 0.08413734 0.07908536 0.03914182
000240 c1 ac c7 bb ff 26 aa 3d 9a 06 a1 3d 30 b4 07 bd
       -0.006093592 0.08308219 0.07862587 -0.033130825
000250 2f c2 9f bd aa ff 9f 3d 6e 97 91 3d c7 e6 d3 3d
       -0.078007095 0.07812436 0.07108961 0.10346752
000260 91 af 38 3c 73 2d 7e bd af 56 5c bc d0 cc 85 bd
       0.011272327 -0.062055063 -0.013448401 -0.065332055
000270 00 5a 92 bd c6 be 04 3e c2 34 8f bd 7e e9 33 3d
       -0.071460724 0.129634 -0.06992485 0.043923847
000280 37 ba ae 3d c4 53 93 3d 61 60 90 3d 7a 61 00 3e
       0.085316114 0.071937114 0.07049633 0.12537184
000290 8f fb a7 3d 8b 30 cd 3b 53 d5 fa 3c 5d 3e 78 bd
       0.08202278 0.0062618903 0.030619299 -0.06060635
0002a0 a0 b6 83 bd 82 fe 90 bd 2b 90 c8 bc 94 6b be 3c
       -0.06431317 -0.070797935 -0.024482807 0.023244657
0002b0 9a e1 30 3d ba 48 98 bd 4d 97 00 bd 16 82 ea 3c
       0.0431839 -0.074357465 -0.03139429 0.028626483
0002c0 60 46 ae 3d 62 14 3a bc bf 28 2e bd b2 12 a4 3d
       0.08509517 -0.011357399 -0.042519327 0.08011378
0002d0 07 62 84 bd 47 ba 60 bd 1c bf 47 3d 54 e0 53 3d
       -0.0646401 -0.054865148 0.04876624 0.051727608
0002e0 6c 4e 80 3d 9b f9 f3 bc 7e dc 7f bd 19 48 6d 3d
       0.06264958 -0.029782107 -0.062466137 0.057930086
0002f0 b2 d9 43 bd af eb c9 3d 1d ad bb bc 31 31 2c 3d
       -0.047815032 0.09859406 -0.022909695 0.0420391
000300 e6 27 12 bd 00 3b 43 3d 83 e5 63 bd d7 4b 83 3d
       -0.03568258 0.04766369 -0.0556388 0.0641095
000310 d0 48 8a bc bf d7 c7 3d 62 93 c7 3c b2 9e 46 bd
       -0.016880423 0.09757947 0.02436227 -0.048491187
000320 31 34 71 bd ce fa 4f bd a8 62 16 3b 6c 20 a6 3d
       -0.058887664 -0.050776295 0.0022946987 0.08111653
000330 1b bd e9 3d 60 73 e9 3c 7d 82 f3 b8 14 3e d7 3d
       0.11413022 0.028497398 -0.00011611448 0.10509887
000340 59 5a 83 3d e2 9f a0 bd 9e 0b 0e bd 9b 14 a5 bd
       0.06413717 -0.07842995 -0.034679048 -0.08060571
000350 cf ec 16 bd 02 25 88 3c 69 ad 25 bc 25 2f e5 bc
       -0.036846932 0.01661921 -0.010112145 -0.027976582
000360 e0 81 ad bd 73 2f 17 3d 42 42 e4 3c a7 36 c9 3d
       -0.08472037 0.036910485 0.027863625 0.09824877
000370 bc 2a 56 3d 3a 9e d1 3c c2 69 c4 bc a3 78 f4 3a
       0.05228685 0.025588144 -0.02397621 0.0018651675
000380 fe 93 45 bd 5c 89 14 3d c9 28 8f bd 0c 36 11 3d
       -0.04823684 0.03626381 -0.06990201 0.035451934
000390 05 24 b2 bd 15 cf 23 3c cb 61 03 bc 6d f1 c1 bd
       -0.086982764 0.009998103 -0.008018921 -0.094698764
0003a0 bd 85 aa 3d 1c b4 73 bd 93 73 19 bd 93 d2 73 3d
       0.0832629 -0.059497938 -0.037463736 0.05952699
0003b0 73 fc ed 3b b8 d5 88 3d 3b 18 a9 bd df 9f 98 3d
       0.0072627603 0.066813886 -0.08256575 0.07452368
0003c0 ee af bc bd bf 25 b5 bd 03 db fc bd 98 d1 4a bd
       -0.092132434 -0.0884509 -0.12346461 -0.04951629
0003d0 3f 1b ad bd a0 65 a8 3c 3a 60 9b 3c 77 d0 5b bd
       -0.084524624 0.020556271 0.018966783 -0.053665604
0003e0 0c 90 56 3d e7 0f 3e bd 4f e3 f5 bd 10 99 68 bd
       0.052383468 -0.046401884 -0.12006246 -0.056786597
0003f0 d5 4a 8e bc 82 f2 5d 3d 75 14 ca bd f2 ee c9 3c
       -0.017369667 0.05418635 -0.09867183 0.02465007

model_32/conv2d_transpose_69/conv2d_transpose f4 [32, 3, 3, 32]
000000 79 dc 54 bd d3 c7 d2 3d dd 4e 81 3c d9 0f c5 bd
       -0.05196807 0.1029202 0.015784675 -0.09622163
000010 04 2f 9f bd 7e 7c 83 bc ac 48 98 3d cf a7 0c 3d
       -0.077726394 -0.016050573 0.07435736 0.034339722
000020 06 7b de 3d 9a 2c 81 bd fb ba da 3d e0 b4 f0 3c
       0.108633086 -0.06307335 0.10680195 0.029383123
000030 5a dc 83 3b e1 e5 ae 3b a2 a1 56 3d b6 8f f7 3d
       0.0040240707 0.0053374623 0.05240024 0.120879576
000040 f1 f7 59 bd 8f dd d7 3b 1b 16 b1 3d c7 b6 cb 3d
       -0.05321497 0.006587691 0.086467944 0.099469714
000050 39 c3 a1 3d 5c 12 34 bd 5f 5b 47 3d 0e 15 7b 3d
       0.07898564 -0.04396282 0.048671123 0.061299376
000060 62 a3 71 3c 05 ca 7a 3d dc b6 c9 bd 12 24 65 bd
       0.014748426 0.061227817 -0.09849331 -0.055942602
000070 28 0a e4 3c 5a 1b ab bc 29 d4 5c bd 16 5b 57 bc
       0.027836874 -0.020887066 -0.05391327 -0.013144275
000080 8a 2d 1e 3d 3a de 5c bd 01 9c a1 3d 42 1c 91 3d
       0.03861765 -0.05392287 0.078910835 0.07085468
000090 c1 1d 19 bd 12 c0 8a 3d 83 1e bc 3d 98 e2 eb bd
       -0.03738189 0.06774916 0.09185507 -0.11517829
0000a0 b0 8e ae 3d f4 30 f1 3c 2d 17 3f bd 2f f5 dd 3c
       0.08523309 0.029442288 -0.04665296 0.027094452
0000b0 e1 cd 8d bd 15 54 ac bd ab d6 2c bd 26 11 c3 bd
       -0.06924034 -0.08414475 -0.04219691 -0.09524755
0000c0 49 ed f2 3c 1d 34 3d bd 0d 4e d4 3c c0 55 b4 bd
       0.029654162 -0.046192277 0.025916124 -0.08805418
0000d0 5f d0 b0 bd ed 6e 7e bc 44 3a 4b bd 53 1f 8d 3c
       -0.08633494 -0.015529376 -0.049616113 0.01722685
0000e0 9b 58 88 bd 1a 7f 49 3c 37 51 5b bd ad 15 d3 bd
       -0.06657525 0.01229837 -0.05354425 -0.10306869
0000f0 7c d4 9f 3c 0c a3 7b bd 77 cf 8b bd 27 76 2b bd
       0.0195105 -0.06143479 -0.0682668 -0.041860726
000100 6e 64 87 3d e5 96 0b 3d 50 5f ee bc 36 7a ca bd
       0.06610952 0.03407945 -0.029098183 -0.09886591
000110 33 ea 00 bd 59 24 8a bd c6 79 a8 3b 94 3a d2 3d
       -0.03147335 -0.06745214 0.0051414696 0.10265079
000120 48 1a da 3a d1 a6 ce bd f0 aa 80 3d f5 d5 e9 3c
       0.0016639913 -0.100904115 0.06282604 0.028544405
000130 aa 59 0b bc 60 91 fa 3c d0 ec 23 bc 9c c8 63 3d
       -0.008505264 0.030586898 -0.010005191 0.055611238
000140 0a 79 c9 bc b2 24 0c bd 79 52 29 bc 05 16 aa 3c
       -0.024593849 -0.034214683 -0.010334604 0.020762453
000150 3a 78 c4 3d 0f 4f 93 bd c0 e2 59 3d ae ea 35 3d
       0.09593244 -0.071928136 0.05319476 0.04441326
000160 d5 74 19 bd 74 24 08 3c 93 1e 46 bd f7 47 77 bb
       -0.037464935 0.008309472 -0.048369 -0.0037732103
000170 55 91 db 3c 3f e3 89 bd 30 59 9c 3d 8e 09 97 bc
       0.026802698 -0.06732797 0.07634199 -0.018437173
000180 8e cc cf bd bc 62 95 bc 5a 71 a0 bd 0a 8a 71 bd
       -0.101464376 -0.018235557 -0.0783412 -0.058969535
000190 6b b5 59 bd 23 a7 18 3d df ec fc 3c 1c 67 96 3d
       -0.05315153 0.03726877 0.030874668 0.07343885
0001a0 f7 65 7d 3c c5 95 95 3d c2 65 80 bc 65 2a f9 bc
       0.015466205 0.07303957 -0.015673522 -0.030415723
0001b0 fc 65 d2 bd 41 ae 49 bd da 07 95 bd 41 3c 8a 3b
       -0.10273358 -0.049238447 -0.07276888 0.0042186086
0001c0 05 ff 66 3d e3 33 06 bd 3d 23 f0 3d 86 77 21 3d
       0.05639555 -0.032764327 0.11725471 0.039420627
0001d0 04 f2 0f bd 87 0c e7 3d f3 b6 76 3d a3 36 09 bd
       -0.035142913 0.11281686 0.060233068 -0.03349937
0001e0 2b e6 d0 3b e1 71 2a 3b 74 6f cf 3c 45 58 89 bd
       0.0063750944 0.0026007819 0.0253217 -0.06706289
0001f0 4b 73 c9 3d ea 6c b9 3c 41 5a db 3c 05 b4 75 bd
       0.098364435 0.022634942 0.026776435 -0.059986133
000200 6f cb 89 3d 3c 85 c8 bc f8 d6 93 bc 2c 70 34 3d
       0.06728255 -0.024477594 -0.018046841 0.044052288
000210 d0 eb 34 3c cb af e2 3a db 70 99 bd cd 36 6c 3d
       0.01104255 0.0017294822 -0.074922286 0.05766945
000220 5c 74 26 3d c2 90 3c bd a7 64 7d bd e0 03 d5 bd
       0.040638313 -0.04603649 -0.061863568 -0.1040113
000230 1d a4 0c 3b ba 70 3c bc d9 7a 83 3d f5 09 24 bd
       0.0021460124 -0.0115014855 0.06419916 -0.04004856
000240 bf ad 15 bd a6 6c 9c bc 28 53 af 3c 5b db f6 3c
       -0.03654265 -0.019094776 0.021401957 0.030133894
000250 09 7b ec 3b 48 31 08 3e 00 e7 80 3d f9 4d 74 3c
       0.0072168154 0.1330005 0.0629406 0.014911168
000260 9a 32 b0 bd 40 98 03 be 73 ab 83 3d a6 77 80 bb
       -0.086034015 -0.12851048 0.06429186 -0.003920513
000270 1a 26 d0 bb 4c 98 9a bd ee 17 e3 3a 69 07 3a bd
       -0.0063521983 -0.075485796 0.0017325857 -0.045417223
000280 99 b4 ea bd a9 39 3b 3d 8f 76 1a bd d3 39 b4 bd
       -0.114602275 0.045709286 -0.037710723 -0.088000916
000290 08 1b c6 3d 8e b4 55 bd b0 a3 c7 3c df 08 b8 3d
       0.096731246 -0.052174143 0.024370044 0.08986067
0002a0 52 29 61 bd 4e 11 69 bd 45 2f 26 bd 8e 95 53 bd
       -0.054971047 -0.05690127 -0.040572423 -0.0516563
0002b0 3d 83 8d bd a9 bb 41 bd 9a 24 34 3c f5 4f 03 bd
       -0.06909797 -0.047298107 0.010995055 -0.032058675
0002c0 c9 96 8a 3d c9 69 00 3d 3b b4 b8 bc 32 ee 84 3c
       0.06767041 0.031350885 -0.022546878 0.016226862
0002d0 fa a9 0e 3c 99 fa b6 3d 77 bd f1 3c 22 ae b7 3d
       0.008707518 0.089345165 0.02950929 0.0896876
0002e0 12 ca 9f bd 03 48 85 bd 22 39 d7 bd 1e 90 21 bd
       -0.07802214 -0.06507876 -0.10508944 -0.03944408
0002f0 39 e2 d0 bd 7b 99 20 bd 95 fb 31 3c e8 6f 12 bd
       -0.101993985 -0.03920887 0.0108632045 -0.035751253
000300 03 02 71 3d 84 e2 b8 3d 62 53 c7 3b d8 1f 9a bd
       0.05883981 0.090275794 0.006082938 -0.07525605
000310 8b 12 32 3b bf fb 60 bd cb a1 34 3c 60 ea c5 3c
       0.0027171697 -0.054927584 0.011024903 0.02415961
000320 d4 3a a3 bd 3c 83 b1 bc 7a 9e 02 3d bb be 3a 3d
       -0.07970205 -0.021669023 0.031889416 0.04559205
000330 29 30 46 bd a0 6e be 3d 68 46 52 3d ce b5 9f 3c
       -0.048385773 0.09298444 0.051336676 0.01949587
000340 d5 9a fc bb 1c 3e 5d bd a4 70 53 bd f7 ce b0 3d
       -0.007708887 -0.05401431 -0.051621094 0.086332254
000350 85 59 af 3d 25 0f c6 3d 68 8c ab 3d 89 2d 8f bc
       0.08561996 0.09670857 0.0837639 -0.017477768
000360 4a ef 8b bc ef 53 e7 3d 47 57 9a 3d be 74 a6 bd
       -0.017081875 0.11295306 0.07536178 -0.081277356
000370 f3 81 97 bd 48 6c 20 3c 56 6d 83 3c 6e 1d f3 3d
       -0.07397833 0.009791441 0.016043346 0.11870848
000380 3f d8 13 bd f1 37 8b bd f6 33 67 3d d4 6f a2 bd
       -0.0360949 -0.06797779 0.05644604 -0.07931486
000390 2a f0 6c 3d f8 4f 86 3d ca fa 16 3d 28 0d b0 3d
       0.057846226 0.065582216 0.036860265 0.08596259
0003a0 92 03 2a bc be 7a 9e 3d a8 e9 07 3d 21 a4 ac bd
       -0.010376828 0.07738255 0.033181816 -0.084297426
0003b0 09 46 46 3c e8 f4 41 bd 11 ea 8f 3d 93 7e c9 bd
       0.012101659 -0.0473527 0.070270665 -0.09838595
0003c0 33 8f 4c bc 20 80 58 bd 2e cb 73 3d c2 63 da bd
       -0.012485313 -0.052856565 0.05951994 -0.106635585
0003d0 d0 54 8a bd 4d 9c c3 bc 45 d0 bc 3c 34 42 58 bd
       -0.06754458 -0.023878241 0.02304853 -0.05279751
0003e0 81 30 c9 bd 12 cd 68 bd 27 c3 01 bd be ff 31 bd
       -0.098237045 -0.056836195 -0.031680252 -0.043456785
0003f0 90 74 e5 bc b9 a1 1d 3d 55 ab 0e bd 26 aa 38 3d
       -0.028009683 0.03848431 -0.034831364 0.04508414

model_32/conv2d_106/BiasAdd;model_32/conv2d_106/Conv2D;conv2d_106/bias f4 [3]
000000 7e d0 af bc f9 31 da bc f7 8e 8c bc
       -0.021461722 -0.026635157 -0.017158015
